Before Code activation
after Code activation
Before env activation
After Code activation
Before code run 
Thu Nov 28 13:24:00 EST 2024
Configuration batch_size  : 128 ,epochs : 2000 ,learning_rate : 0.001 , patience : 50 , device : cuda
Files already downloaded and verified
Files already downloaded and verified
Training Rotation task
SimpleCNN(
  (stn): SpatialTransformer(
    (localization): Sequential(
      (0): Conv2d(3, 32, kernel_size=(7, 7), stride=(1, 1), padding=(3, 3))
      (1): ReLU(inplace=True)
      (2): MaxPool2d(kernel_size=2, stride=2, padding=0, dilation=1, ceil_mode=False)
      (3): Conv2d(32, 64, kernel_size=(5, 5), stride=(1, 1), padding=(2, 2))
      (4): ReLU(inplace=True)
      (5): MaxPool2d(kernel_size=2, stride=2, padding=0, dilation=1, ceil_mode=False)
    )
    (fc_loc): Sequential(
      (0): Linear(in_features=4096, out_features=128, bias=True)
      (1): ReLU(inplace=True)
      (2): Linear(in_features=128, out_features=6, bias=True)
    )
  )
  (features): Sequential(
    (0): Conv2d(3, 64, kernel_size=(3, 3), stride=(1, 1), padding=(1, 1))
    (1): BatchNorm2d(64, eps=1e-05, momentum=0.1, affine=True, track_running_stats=True)
    (2): ReLU()
    (3): MaxPool2d(kernel_size=2, stride=2, padding=0, dilation=1, ceil_mode=False)
    (4): Conv2d(64, 128, kernel_size=(3, 3), stride=(1, 1), padding=(1, 1))
    (5): BatchNorm2d(128, eps=1e-05, momentum=0.1, affine=True, track_running_stats=True)
    (6): ReLU()
    (7): MaxPool2d(kernel_size=2, stride=2, padding=0, dilation=1, ceil_mode=False)
    (8): Conv2d(128, 256, kernel_size=(3, 3), stride=(1, 1), padding=(1, 1))
    (9): BatchNorm2d(256, eps=1e-05, momentum=0.1, affine=True, track_running_stats=True)
    (10): ReLU()
    (11): AdaptiveAvgPool2d(output_size=(1, 1))
    (12): Dropout(p=0.1, inplace=False)
  )
  (dropout2): Dropout(p=0.1, inplace=False)
  (fc): Linear(in_features=256, out_features=4, bias=True)
)
Epoch 1/200
Train Loss: 1.0261, Train Acc: 56.2013
Val Loss: 0.9453, Val Acc: 59.9731
Epoch 2/200
Train Loss: 0.8812, Train Acc: 63.7681
Val Loss: 0.9965, Val Acc: 57.3275
Epoch 3/200
Train Loss: 0.8139, Train Acc: 66.9856
Val Loss: 0.7980, Val Acc: 67.2362
Epoch 4/200
Train Loss: 0.7704, Train Acc: 68.9163
Val Loss: 0.7874, Val Acc: 68.8000
Epoch 5/200
…
Train Loss: 0.2943, Train Acc: 88.9488
Val Loss: 0.2382, Val Acc: 91.3531
Epoch 196/200
Train Loss: 0.2928, Train Acc: 89.0075
Val Loss: 0.2567, Val Acc: 90.3637
Epoch 197/200
Train Loss: 0.2913, Train Acc: 89.1100
Val Loss: 0.2373, Val Acc: 91.3912
Epoch 198/200
Train Loss: 0.2931, Train Acc: 88.9444
Val Loss: 0.2363, Val Acc: 91.4288
Epoch 199/200
Train Loss: 0.2916, Train Acc: 88.9975
Val Loss: 0.2408, Val Acc: 91.2056
Epoch 200/200
Train Loss: 0.2922, Train Acc: 89.0144
Val Loss: 0.2314, Val Acc: 91.5625
Output layer is changing 4 to 10 
Training
SimpleCNN(
  (stn): SpatialTransformer(
    (localization): Sequential(
      (0): Conv2d(3, 32, kernel_size=(7, 7), stride=(1, 1), padding=(3, 3))
      (1): ReLU(inplace=True)
      (2): MaxPool2d(kernel_size=2, stride=2, padding=0, dilation=1, ceil_mode=False)
      (3): Conv2d(32, 64, kernel_size=(5, 5), stride=(1, 1), padding=(2, 2))
      (4): ReLU(inplace=True)
      (5): MaxPool2d(kernel_size=2, stride=2, padding=0, dilation=1, ceil_mode=False)
    )
    (fc_loc): Sequential(
      (0): Linear(in_features=4096, out_features=128, bias=True)
      (1): ReLU(inplace=True)
      (2): Linear(in_features=128, out_features=6, bias=True)
    )
  )
  (features): Sequential(
    (0): Conv2d(3, 64, kernel_size=(3, 3), stride=(1, 1), padding=(1, 1))
    (1): BatchNorm2d(64, eps=1e-05, momentum=0.1, affine=True, track_running_stats=True)
    (2): ReLU()
    (3): MaxPool2d(kernel_size=2, stride=2, padding=0, dilation=1, ceil_mode=False)
    (4): Conv2d(64, 128, kernel_size=(3, 3), stride=(1, 1), padding=(1, 1))
    (5): BatchNorm2d(128, eps=1e-05, momentum=0.1, affine=True, track_running_stats=True)
    (6): ReLU()
    (7): MaxPool2d(kernel_size=2, stride=2, padding=0, dilation=1, ceil_mode=False)
    (8): Conv2d(128, 256, kernel_size=(3, 3), stride=(1, 1), padding=(1, 1))
    (9): BatchNorm2d(256, eps=1e-05, momentum=0.1, affine=True, track_running_stats=True)
    (10): ReLU()
    (11): AdaptiveAvgPool2d(output_size=(1, 1))
    (12): Dropout(p=0.1, inplace=False)
  )
  (dropout2): Dropout(p=0.1, inplace=False)
  (fc): Linear(in_features=256, out_features=10, bias=True)
)
Epoch 1/2000
Train Loss: 1.5877, Train Acc: 48.6575
Val Loss: 1.1507, Val Acc: 61.2000
Epoch 2/2000
Train Loss: 1.0213, Train Acc: 64.8200
Val Loss: 0.9324, Val Acc: 67.9900
Epoch 3/2000
Train Loss: 0.8805, Train Acc: 69.3975
Val Loss: 0.8590, Val Acc: 70.2200
Epoch 4/2000
Train Loss: 0.8115, Train Acc: 71.9575
Val Loss: 0.7912, Val Acc: 72.9900
Epoch 5/2000
…
